Using device: cuda
===============================================================================================
Layer (type:depth-idx)                        Output Shape              Param #
===============================================================================================
V2MIDIModel                                   [1, 16]                   --
├─Sequential: 1-1                             [1, 512, 1, 1, 1]         --
│    └─BasicStem: 2-1                         [1, 64, 16, 56, 56]       --
│    │    └─Conv3d: 3-1                       [1, 64, 16, 56, 56]       28,224
│    │    └─BatchNorm3d: 3-2                  [1, 64, 16, 56, 56]       128
│    │    └─ReLU: 3-3                         [1, 64, 16, 56, 56]       --
│    └─Sequential: 2-2                        [1, 64, 16, 56, 56]       --
│    │    └─BasicBlock: 3-4                   [1, 64, 16, 56, 56]       221,440
│    │    └─BasicBlock: 3-5                   [1, 64, 16, 56, 56]       221,440
│    └─Sequential: 2-3                        [1, 128, 8, 28, 28]       --
│    │    └─BasicBlock: 3-6                   [1, 128, 8, 28, 28]       672,512
│    │    └─BasicBlock: 3-7                   [1, 128, 8, 28, 28]       885,248
│    └─Sequential: 2-4                        [1, 256, 4, 14, 14]       --
│    │    └─BasicBlock: 3-8                   [1, 256, 4, 14, 14]       2,688,512
│    │    └─BasicBlock: 3-9                   [1, 256, 4, 14, 14]       3,539,968
│    └─Sequential: 2-5                        [1, 512, 2, 7, 7]         --
│    │    └─BasicBlock: 3-10                  [1, 512, 2, 7, 7]         10,750,976
│    │    └─BasicBlock: 3-11                  [1, 512, 2, 7, 7]         14,157,824
│    └─AdaptiveAvgPool3d: 2-6                 [1, 512, 1, 1, 1]         --
├─Linear: 1-2                                 [1, 16]                   8,208
===============================================================================================
Total params: 33,174,480
Trainable params: 33,174,480
Non-trainable params: 0
Total mult-adds (Units.GIGABYTES): 40.70
===============================================================================================
Input size (MB): 2.41
Forward/backward pass size (MB): 341.20
Params size (MB): 132.70
Estimated Total Size (MB): 476.30
…
